models/trained/baseline_cnn.pth (torch, 650016 bytes, 24 tensors)

conv1.weight f4 [32, 3, 3, 3]
000000 e1 58 23 3e 96 0e 10 be e2 d2 c4 3c ce 06 28 be
       0.15951873 -0.14068064 0.024026338 -0.16408846
000010 c2 48 2a 3b 91 39 b7 bd 64 c0 28 3e 62 81 36 be
       0.0025983308 -0.08946527 0.16479641 -0.17822793
000020 6e 86 32 bd 00 df 96 bd a0 f4 21 be cb 7e d0 3d
       -0.043585233 -0.073667526 -0.15815973 0.10180434
000030 89 7c 0e 3e 86 e7 cb 3d 24 43 3d be c1 c9 b7 3d
       0.13914694 0.09956269 -0.18482643 0.089740284
000040 32 c1 36 3e 3e 73 a6 3d e2 96 08 be 1b 09 3a be
       0.17847136 0.081274495 -0.13338807 -0.18167536
000050 91 91 22 be b8 9a 0c be a5 e9 33 be 3c 82 a4 bc
       -0.15875842 -0.13730896 -0.17569597 -0.020081632
000060 24 14 40 be 86 9e 0c 3e 5d a7 eb 3d 70 e9 0a be
       -0.18757683 0.13732347 0.115065314 -0.13565612
000070 93 de 87 bb 70 b7 39 3e 9e 97 e3 bd 24 82 33 3e
       -0.004146406 0.18136382 -0.11112903 0.17530113
000080 34 0a b0 bd 6b 55 a9 bc c0 70 2d be 1e 85 22 be
       -0.08595696 -0.020670613 -0.16937542 -0.15871093
000090 c6 28 44 3e 8b df 35 be a0 57 fb bd 0c 8e a2 bc
       0.19156179 -0.17761056 -0.122725725 -0.019843124
0000a0 d0 02 9c 3d 2e bb 80 3d 77 f4 af 3d 60 73 d9 3d
       0.07617724 0.06285702 0.0859155 0.10617709
0000b0 81 88 33 3e 71 14 18 be 1f ce ef bd 01 c3 20 3e
       0.17532541 -0.14851548 -0.11709236 0.15699388
0000c0 4e a9 fe bc c7 9d ed 3c 3e b3 30 3e fe 0e a8 3d
       -0.03108659 0.029005898 0.17255875 0.082059845
0000d0 fb 1b df 3d 7e e1 98 3c a1 d1 44 3e bc 47 2f be
       0.10894009 0.01866221 0.19220592 -0.17117208
0000e0 4b 23 09 be b1 ca 83 bd cf d1 51 bb 6c d4 a9 3d
       -0.1339237 -0.06435145 -0.0032015925 0.082924694
0000f0 8d 84 ab bb 07 0a 91 bd 7e 37 0f 3d 7e fe 66 3c
       -0.005234307 -0.07081991 0.03496503 0.014098762
000100 7d 31 f0 3d 72 ad a3 bd 78 ea a9 3d db 40 06 bb
       0.11728189 -0.079920664 0.082966745 -0.0020485434
000110 f2 48 93 bd 92 cb 56 bd 97 59 58 3d 4c 87 3c be
       -0.071916476 -0.052440234 0.052819815 -0.18410987
000120 fa 1f 23 3b 8b f4 3c be b7 cc bc 3c eb b6 3a be
       0.0024890886 -0.1845266 0.023046834 -0.1823384
000130 fc 23 62 3c fe bf 09 3e 06 90 eb 3d 92 04 f5 3d
       0.013802525 0.13452145 0.1150208 0.11963762
000140 12 73 2b bd 7e a1 4e bd df 35 38 3e 95 28 7e bb
       -0.041857786 -0.05044698 0.179893 -0.0038781513
000150 47 01 89 3d 51 0b db 3c 6d 0d 1e be 25 3b 85 3c
       0.06689697 0.026738795 -0.15434809 0.016263554
000160 8c 68 2b 3e 07 6c 5b 3c 04 68 dc bd af 23 3f be
       0.167391 0.013392455 -0.10762027 -0.18665956
000170 ca cc 1e be 80 da 25 3e 14 89 d0 3d 56 ff 02 3e
       -0.15507808 0.16196632 0.101823956 0.12792715
000180 a2 33 a7 3d a4 03 db 3d 51 62 b7 bd e4 b7 93 bd
       0.08164145 0.10694054 -0.08954299 -0.07212809
000190 df 2e 0b be 3c 79 16 be 08 34 0a 3d e7 94 0c be
       -0.13592099 -0.14694685 0.033741027 -0.13728677
0001a0 85 bc 64 bd 98 28 2c 3d ad 60 25 3e bb cd 90 3d
       -0.05584385 0.0420309 0.1615016 0.0707049
0001b0 aa a1 1b be db 65 eb bd 6f c9 16 be f5 50 3e be
       -0.15198389 -0.11494037 -0.14725278 -0.1858557
0001c0 d3 65 43 3e 31 d1 3e be 90 08 97 3d 02 1b e2 bc
       0.19081812 -0.18634488 0.0737468 -0.027600769
0001d0 63 e9 37 be d4 0c 1d 3e 0f a0 15 be 36 1c 1d be
       -0.17960124 0.15336925 -0.14611839 -0.15342793
0001e0 d8 db 06 be b7 72 de 3d d3 da ec 3d d8 05 53 bc
       -0.13169801 0.10861724 0.11565175 -0.012879811
0001f0 2e dc 38 be a9 ed 9c bd 99 b6 a7 bd 01 16 1d 3e
       -0.18052742 -0.076625176 -0.081891246 0.15340425
000200 0c de ff 3d ba 1b 64 bc 9a 18 03 be a3 23 dc bd
       0.12493524 -0.013922626 -0.12802354 -0.10748985
000210 0c 43 83 3c 02 56 64 3b 5e 23 77 bd 95 d2 77 3d
       0.016023181 0.0034841304 -0.060336463 0.06050356
000220 f0 f6 8d bd df 04 3d bc 63 9d 36 be 19 f3 b7 bd
       -0.06931865 -0.011536806 -0.17833476 -0.08981914
000230 47 77 10 be 4d 05 25 be 50 0c 1e 3e df 55 11 3e
       -0.14108 -0.16115303 0.15434384 0.14192913
000240 af 9a 37 be f8 58 c8 bc 29 f6 80 3d 89 9e a4 3d
       -0.17930101 -0.024456486 0.06296951 0.08038051
000250 3b 8d 61 bd 3e 38 3b 3d f2 90 40 3e 2e f2 17 3e
       -0.05506633 0.045707934 0.18805292 0.14838478
000260 1a ba 16 3c 86 22 c9 3d fc 4c 77 bd d2 52 05 be
       0.0091996435 0.09821038 -0.060376152 -0.13019875
000270 ae b6 a8 bd 00 9f 40 3e 17 30 27 3e 3f 5a 01 3e
       -0.082379684 0.18810654 0.16326939 0.12632082
000280 2b 56 9c bc 62 da 16 3e ce 59 66 3c 60 d1 ae 3d
       -0.019084057 0.14731744 0.014059497 0.08536029
000290 20 c7 0a bd 0a 17 76 bd cb 8b 04 be af ba a5 3d
       -0.033881307 -0.060080566 -0.12943952 0.08092248
0002a0 ba dc c9 3d 38 01 21 be 64 22 59 bd bf 29 6d bd
       0.098565534 -0.15723121 -0.053011313 -0.05790114
0002b0 c2 c0 a8 3d 4a 99 22 be e6 7d c1 3d 61 f5 15 3e
       0.08239891 -0.15878788 0.09447841 0.14644386
0002c0 39 c6 15 be cb 9d c6 3d e0 60 e9 3d b4 79 2c be
       -0.14626397 0.09698065 0.113954306 -0.16843301
0002d0 ab 74 d5 bd 69 3c 36 be 8c a0 06 be 2b 8e 10 3d
       -0.10422643 -0.17796482 -0.13147181 0.035291832
0002e0 24 5f 64 bd ed 64 1e be d5 2f d2 bd 47 73 c5 3c
       -0.055754796 -0.15468188 -0.102630295 0.02410282
0002f0 f5 b9 3b be c4 b3 39 bd b6 b2 d2 bb ee 22 03 be
       -0.18332656 -0.045337453 -0.0064299954 -0.12806293
000300 bd b3 5d bd 30 c0 22 be c9 bb 2e 3d 58 93 32 3d
       -0.05412649 -0.15893626 0.042659555 0.04359755
000310 7a f1 76 3c 4e 7b d1 bb 7e e2 76 bd 36 f9 35 3e
       0.015072221 -0.006392873 -0.060274594 0.17770848
000320 e8 43 28 3e cf ff 3c be 36 17 37 be 1e 73 17 3e
       0.16432154 -0.18456958 -0.17879948 0.14790007
000330 64 fd f4 3d 86 a1 0c 3e 29 6d 21 3e 4e 8e cc 3d
       0.11962393 0.13733491 0.15764298 0.0998808
000340 7c 7c 55 3c cd e3 d3 bd a5 29 3f 3e 57 55 a0 3d
       0.013030168 -0.10346184 0.1866823 0.07828777
000350 6d 60 d1 3d 54 cd 40 bc 23 8e 91 3c b3 af de bc
       0.1022347 -0.011767704 0.017767971 -0.02718339
000360 ac 0b 2d be ef 2e 42 3e 22 7f 26 3e e1 18 51 bd
       -0.16898984 0.18963216 0.16259435 -0.051049117
000370 4e 75 30 3e 74 b1 b5 bd bb 97 35 3e 6b 3c 6e bc
       0.17232248 -0.08871737 0.17733662 -0.014540772
000380 88 41 f2 3d 5e de 99 3a 2b 34 a4 bd b8 e9 c7 bd
       0.11828905 0.0011739244 -0.08017763 -0.09761375
000390 c3 df 51 3d eb 81 b1 bd 42 54 6f bd 19 a6 42 bd
       0.051238786 -0.08667358 -0.058429964 -0.047521684
0003a0 34 06 af 3d 68 b0 d1 3c 37 c1 3c 3e 97 1e 05 3e
       0.08546105 0.025596812 0.1843308 0.1299995
0003b0 6a 4c b9 bd 3f 31 8e bd 5e c3 24 be ca 47 ce 3d
       -0.09047778 -0.06942987 -0.16090152 0.100722864
0003c0 87 7d 0c 3e fa e4 69 bc e9 63 22 3c 01 24 f0 3c
       0.1371976 -0.014275784 0.009911516 0.029314043
0003d0 10 89 ae bd 67 08 7a bc a8 00 85 3d 5e 27 ee bc
       -0.08522236 -0.015260792 0.06494266 -0.029071506
0003e0 cb ea 2b be 28 19 18 3e f3 ee 22 3e 02 8c fb 3d
       -0.16788785 0.14853346 0.15911464 0.12282564
0003f0 99 84 d4 3d 50 85 22 3e c7 40 da bd 15 a4 f1 bd
       0.103768535 0.15871167 -0.106568865 -0.11798874

conv1.bias f4 [32]
000000 b5 3a 2f 3d f4 8f ba 3d 03 0b 42 3e 88 61 18 be
       0.042780597 0.09109488 0.18949513 -0.14880955
000010 ab c3 ed 3d c2 c5 20 bd aa c7 17 be 02 9c 23 3e
       0.11609586 -0.039251097 -0.1482226 0.15977481
000020 9f 89 e7 3d 70 1b 93 bd 2f 04 98 3d a9 ce 9d 3d
       0.11305546 -0.07182968 0.07422673 0.07705433
000030 01 81 f2 3d b3 5f 29 3e a8 8b 23 3e fe e3 15 be
       0.11841012 0.16540413 0.15971243 -0.14637753
000040 e5 8a 94 bb 4e 59 b6 bd ba ee d7 3d 9d 5c 05 3e
       -0.004533159 -0.08903752 0.1054358 0.1302361
000050 bc 9d 3b bd 1b 4d 88 bc bb b0 14 be 99 9a 33 3d
       -0.045804724 -0.01663833 -0.14520542 0.043848608
000060 02 d8 c0 3d 95 b1 70 bd da fd 44 3e 63 77 17 3c
       0.094162 -0.058763105 0.19237462 0.009244773
000070 ad bf 42 3d e9 0a d7 3d 71 68 1b be 04 da f8 bc
       0.047546078 0.10500128 -0.1517656 -0.030377395

batch_norm1.weight f4 [32]
000000 88 ff 7f 3f b9 fe 7f 3f ab ff 7f 3f a9 ff 7f 3f
       0.99999285 0.9999805 0.99999493 0.9999948
000010 66 fe 7f 3f bb fe 7f 3f 59 ff 7f 3f 90 ff 7f 3f
       0.99997556 0.9999806 0.99999005 0.9999933
000020 24 ff 7f 3f 31 fe 7f 3f 6f ff 7f 3f 7d ff 7f 3f
       0.9999869 0.9999724 0.99999136 0.9999922
000030 63 ff 7f 3f 1d ff 7f 3f 69 ff 7f 3f 30 ff 7f 3f
       0.99999064 0.99998647 0.999991 0.9999876
000040 cb fe 7f 3f f8 fe 7f 3f 0a ff 7f 3f 23 ff 7f 3f
       0.9999816 0.99998426 0.99998534 0.9999868
000050 2c fe 7f 3f ea fe 7f 3f d1 fe 7f 3f 3b ff 7f 3f
       0.9999721 0.99998343 0.99998194 0.99998826
000060 b5 fe 7f 3f 7d ff 7f 3f 19 ff 7f 3f c5 ff 7f 3f
       0.9999803 0.9999922 0.99998623 0.9999965
000070 9f fe 7f 3f cb fe 7f 3f 30 ff 7f 3f 2f ff 7f 3f
       0.99997896 0.9999816 0.9999876 0.99998754

batch_norm1.bias f4 [32]
000000 3a b3 38 b6 f7 dd a1 b3 dd 10 42 36 8f 29 c0 35
       -2.752246e-06 -7.537522e-08 2.8918068e-06 1.431721e-06
000010 74 a5 95 b6 51 1c 6d b6 6f e8 57 36 6a ae 3f 36
       -4.4598073e-06 -3.5332234e-06 3.217279e-06 2.856274e-06
000020 7e ef 11 b6 5e e8 b2 b4 22 11 49 36 15 56 86 36
       -2.1746087e-06 -3.3324153e-07 2.9961307e-06 4.0035325e-06
000030 10 a1 63 36 20 c0 18 36 e2 37 7e 36 0c 81 2b 34
       3.3919387e-06 2.2761596e-06 3.7881478e-06 1.5972563e-07
000040 b1 ac c5 b5 b0 0f 7b 35 19 49 9a b5 8f 1f 3b 35
       -1.4727904e-06 9.3527615e-07 -1.1495168e-06 6.970885e-07
000050 32 f0 91 b5 93 89 ef 35 ea 53 a5 35 49 80 c9 b3
       -1.0873248e-06 1.7846927e-06 1.231788e-06 -9.383127e-08
000060 88 b6 94 b6 ed 4b 84 36 fc a3 f4 34 59 7d b8 b5
       -4.431993e-06 3.9427455e-06 4.5567856e-07 -1.3745549e-06
000070 ff 9c fd b5 ef e0 08 34 a4 bb 01 36 41 8a 1b b6
       -1.8895661e-06 1.2747817e-07 1.933172e-06 -2.3177274e-06

batch_norm1.running_mean f4 [32]
000000 9e 1a 95 be e5 4c 67 3e 4f 09 5b 3d 8b 18 d7 bd
       -0.2912187 0.22587927 0.053475674 -0.10502728
000010 0a 2b d1 be 6f c7 18 3e 5c 02 15 bf c5 00 c5 3e
       -0.4085315 0.14919828 -0.58206725 0.3847715
000020 43 7b aa 3e 85 74 2d bd cc 04 13 3e f8 59 bd bd
       0.33297166 -0.04234745 0.14357299 -0.09245676
000030 f0 21 9c bd 74 26 e2 3e 39 7f 54 3e 2d f5 ee be
       -0.076236606 0.44169962 0.20751657 -0.4667143
000040 0b 3d 9f be 60 8b ce be cd 00 88 3d aa 71 4a be
       -0.3110126 -0.4034071 0.06640778 -0.19769922
000050 70 29 ac 3d e5 92 17 3e 96 5c c2 be ab 6f 08 3f
       0.08406341 0.1480213 -0.37961262 0.5329539
000060 49 10 08 3f 5a 68 07 bf 78 f9 9a 3e 6c ee d6 3d
       0.5314985 -0.528936 0.30268455 0.10494694
000070 74 7f ec be d6 9c 5e 3e 90 08 97 3e 44 9d f7 be
       -0.4619099 0.21739516 0.2949872 -0.48362172

batch_norm1.running_var f4 [32]
000000 8a 82 0a 3e 26 6f 04 3e 95 10 f6 3d b7 1a 00 3e
       0.13526359 0.12933025 0.120148815 0.12510191
000010 b4 9b 06 3e f2 b4 02 3e 03 5e 00 3e 21 42 fd 3d
       0.13145334 0.12764338 0.12535863 0.12366129
000020 4b b0 fd 3d a8 c8 01 3e fd 75 fa 3d 44 31 f5 3d
       0.12387141 0.126742 0.12229536 0.11972287
000030 1d e5 fc 3d 45 8e fc 3d 31 6c f2 3d 16 f8 04 3e
       0.123483874 0.12331823 0.11837042 0.12985262
000040 48 87 f3 3d 0a e4 ee 3d e2 ad ed 3d ce b9 fd 3d
       0.11891037 0.11664589 0.11605431 0.12388955
000050 5b a4 fa 3d 7b e7 f4 3d eb f3 f6 3d b3 59 fd 3d
       0.122383796 0.11958214 0.120582424 0.123706244
000060 48 38 fa 3d 65 42 fa 3d fd 01 f2 3d 25 87 06 3e
       0.12217766 0.12219695 0.118167855 0.13137491
000070 3c 17 00 3e 16 49 02 3e 4e e1 02 3e af 40 fd 3d
       0.12508863 0.12723193 0.1278126 0.12365853

conv2.weight f4 [64, 32, 3, 3]
000000 a9 89 c1 3b 21 d2 46 3c a1 12 ca bc 4f ac 39 bb
       0.005906303 0.01213506 -0.024667086 -0.0028331464
000010 6e 34 12 3d aa d7 23 bb 74 aa 46 3d 2e 5f 63 3c
       0.035694532 -0.0025000372 0.0485024 0.013877673
000020 06 1f 1e 3d bb c7 1a bd c3 18 6e bd b6 31 31 bc
       0.038603805 -0.037788134 -0.058129083 -0.010815075
000030 a3 cc 54 bc 08 19 b5 3c f0 62 64 bd 61 63 11 3d
       -0.012988242 0.022106662 -0.055758417 0.035495166
000040 2a 01 82 bc 80 b1 94 bb 4e 22 61 3d 5f c9 4e bd
       -0.015869696 -0.004537761 0.054964356 -0.05048501
000050 e7 19 a8 3c cb 72 ae 3a d3 af f6 bb c1 4c 1f 3d
       0.020520164 0.0013309357 -0.007528284 0.038891558
000060 16 d9 35 3d 71 6d c1 bc 12 bb 57 bd 9d 55 62 3c
       0.044396482 -0.023611756 -0.05266864 0.013814357
000070 50 7d 6b bc bd c3 6d bb af 33 1e bd 35 a4 a7 bb
       -0.014373139 -0.003628 -0.038623508 -0.0051160106
000080 cd 10 6b bc bf b0 20 3d b2 52 db 3b d7 06 8a bc
       -0.014347267 0.03923106 0.0066932077 -0.016848965
000090 a6 8f a6 39 6f 05 02 bd 76 28 26 bc 5d b3 51 bd
       0.00031769014 -0.031743463 -0.010141483 -0.051196445
0000a0 72 b5 fa bc 02 e8 10 bd f4 13 db ba 6d 2a 3f bd
       -0.030604098 -0.03537751 -0.001671432 -0.04667132
0000b0 6d 4f 1c bd 64 07 f0 3c 62 81 ec 3c e8 4f 9c 3c
       -0.038161684 0.0293004 0.028870288 0.019081071
0000c0 53 4f fd bc 29 70 3d 3d 73 f3 65 bc 3b a5 25 3d
       -0.030921614 0.046249542 -0.014035094 0.04044078
0000d0 e4 6f 44 3d 17 8c af 3c 7d ee cc 3c a1 de 58 3d
       0.04795827 0.021429105 0.025016064 0.05294669
0000e0 81 4d fe bc aa bf db 3c b8 a4 ca 3b 23 66 25 bd
       -0.031042816 0.026824791 0.006184187 -0.04038061
0000f0 40 5c b5 3c 35 2f 55 3d 80 a2 b1 bc 98 f1 1e 3d
       0.022138715 0.052046973 -0.021683931 0.03880462
000100 c8 06 5e bd e6 83 42 bc 61 4b c3 bc 1f f6 41 3d
       -0.054205686 -0.011872267 -0.023839654 0.04735386
000110 23 7c 1e 3d a0 68 14 3d 9e 13 20 3d 14 fb 34 bd
       0.038692605 0.03623259 0.03908121 -0.04418476
000120 b0 a6 0f bd b9 11 be 3c 92 a9 82 bb 1f 14 a2 3c
       -0.035071075 0.02320181 -0.0039874995 0.019784985
000130 d6 c7 08 3b 5b 55 f0 3c 79 6c 3f bc 54 29 45 3d
       0.0020871065 0.029337576 -0.011683577 0.048135117
000140 49 d5 0a 3d ff 2d 09 3c b0 7e 57 3d ed f5 e7 bc
       0.03389481 0.008372783 0.052611053 -0.028315509
000150 50 18 25 bd b3 41 4a 3d f0 79 5f 3d a1 37 58 3d
       -0.04030639 0.049379062 0.054559648 0.052787427
000160 0d df b6 bc a1 ac 3a bd 32 7c 55 bd 9b 54 68 bd
       -0.022323156 -0.045574788 -0.052120395 -0.05672131
000170 d8 cf 1d bc 83 0f 2f 3d 74 bb 42 bd fb b1 fe bc
       -0.009632073 0.042739403 -0.04754205 -0.031090727
000180 53 bc 70 bd ca 69 3d 3d 5a 9d 68 3d 93 ae 82 bc
       -0.05877335 0.046243466 0.056790687 -0.015952384
000190 8d e8 1e 3d ec 25 6e bd b4 36 70 bd 9a 6b 6a bd
       0.038795996 -0.058141634 -0.05864592 -0.057231523
0001a0 05 2b ec 3b 94 67 07 3d c4 c6 10 3d 37 07 3b 3d
       0.0072072768 0.033057764 0.035345808 0.045661177
0001b0 75 d4 02 bd 4d b7 0d bd 57 bf 01 3b 66 d9 6a 3d
       -0.031940896 -0.034598637 0.0019797885 0.057336234
0001c0 59 33 6a bc 65 6c 15 bd fd 8f cc 3b f4 8b 4f 3d
       -0.014294469 -0.036480326 0.0062427507 0.05067058
0001d0 be 43 65 3d db 2b 47 bc ad 01 12 bc 29 a1 69 bd
       0.055972807 -0.012156452 -0.008911532 -0.05703846
0001e0 f7 51 b7 bc be 15 45 bc 15 4a eb bc c0 52 4b 3d
       -0.022377951 -0.0120291095 -0.028721849 0.049639463
0001f0 96 0d 07 bd 90 b5 4f 3b 82 fd 8e 3c bb 45 04 3d
       -0.03297194 0.0031693913 0.017454866 0.032293063
000200 fd f6 d9 bc 05 48 b3 bc 0a 31 51 bd a7 43 2b 3c
       -0.026607031 -0.021884928 -0.051072158 0.010453141
000210 3e ec 66 bc a9 3e dd 3b ce ce 17 3c cd 57 59 bd
       -0.01409441 0.0067518544 0.009265615 -0.05306225
000220 b9 19 31 3c 7c 80 38 bd 45 fe 1a bc 10 a1 98 3c
       0.010809355 -0.045044407 -0.009460037 0.018631488
000230 33 c1 04 3b f2 6d c5 3c 2a fb 68 bd 2a 35 a0 3c
       0.0020256757 0.024100278 -0.056880154 0.0195566
000240 89 f8 45 bc 8a 09 53 bc d8 b2 4f bd bb 4b ff 3c
       -0.012083181 -0.012880692 -0.050707668 0.03116404
000250 7b 5c 31 bd ab 93 eb bc 84 80 df 3c 38 fe 05 bd
       -0.043301087 -0.028756937 0.02728296 -0.032713145
000260 56 dc 8e 3c a1 1b 5e 3d 62 0c b9 bc 16 1a f0 3b
       0.017439049 0.054225568 -0.022588912 0.0073273284
000270 9e b5 bf 3b b1 15 d5 ba 8f 9b 2e 3d 5e c4 89 bc
       0.005850508 -0.0016257075 0.04262882 -0.016817268
000280 ab 3d 71 bc 83 ca 18 bc e7 f5 0e 3d 7f 2e 07 3d
       -0.014724175 -0.009325626 0.03490248 0.033003327
000290 38 4e 47 3d cd 29 f5 3b 08 c0 a1 bc 59 d2 41 3d
       0.04865858 0.0074817897 -0.019744888 0.047319744
0002a0 31 66 3b bc de 15 0c bd e3 b8 6a bd e3 6c 20 bc
       -0.011437939 -0.03420054 -0.057305228 -0.009791586
0002b0 ca 0e 5e 3c 62 c4 38 3c 0e 32 fc bc d0 f6 4c bd
       0.013553331 0.01127729 -0.030785587 -0.050040066
0002c0 35 8c 21 3d d0 55 40 3d 86 cf 29 3c f3 e5 58 3d
       0.039440352 0.046956837 0.010364419 0.05295367
0002d0 2f 2f 33 bc 59 b8 60 bd 2b 33 11 bd 24 c9 4c bc
       -0.010936542 -0.054863308 -0.03544919 -0.012499128
0002e0 b5 59 2b 3d aa 63 08 bd 6d 31 e3 bc ca 8f b6 bc
       0.0418336 -0.033298172 -0.027733529 -0.02228536
0002f0 de c5 4e bd d5 5e 0d 3d bf 68 6e bd ad 48 1d bb
       -0.05048167 0.034514267 -0.058205362 -0.0023999617
000300 76 97 09 3d bb 17 da 3c a1 96 4f 3c fc 09 89 3c
       0.03359171 0.026622644 0.01267019 0.016728394
000310 b5 7f 3c bd 43 14 54 bc 93 f8 4b 3d 8d 33 44 3c
       -0.04602023 -0.012944284 0.049797606 0.011975181
000320 d5 16 4b 3a 67 2c 29 bd 57 5a 38 bd 1c b7 11 bd
       0.00077472377 -0.04130211 -0.04500803 -0.035575017
000330 8c c3 6f 3b 31 07 fd 3b 08 ab 52 bd 35 29 51 bc
       0.003658506 0.0077218045 -0.05143264 -0.012766172
000340 36 17 3b 3d b8 ed 43 3d e0 44 4e bd f2 c6 20 3c
       0.045676433 0.04783413 -0.050358653 0.009813057
000350 6f 75 82 3c 8b 84 1f 3d 77 67 4e 3c 16 dd 92 3c
       0.015925137 0.038944762 0.01259791 0.017927688
000360 31 1e 50 bd 39 24 ad bc 47 28 1d bd 91 59 c0 3c
       -0.050810043 -0.021135436 -0.03836849 0.023480209
000370 f2 11 6d bd 72 ed bd bc c8 99 2d bd d7 43 34 bc
       -0.057878442 -0.023184512 -0.042382985 -0.011002502
000380 f7 67 61 bd 0d 43 0b bd 91 12 46 3d fa 08 26 bd
       -0.05503079 -0.03399949 0.04835755 -0.040535904
000390 ae 69 72 bc ac 3a 35 bd 2f 26 79 bc d7 38 58 bb
       -0.014795704 -0.044245407 -0.015206858 -0.0032992864
0003a0 65 f1 63 bd 48 85 0e bd dc f5 16 3c aa 05 2e bd
       -0.055650134 -0.034795076 0.009213891 -0.04248587
0003b0 38 95 90 3c 01 2a 10 3d 69 ff 60 bd ed 77 b4 bc
       0.017649278 0.035196308 -0.054931078 -0.022029841
0003c0 1f ad 73 3c 1b bd 25 bd d7 72 56 bc 8f 38 08 3b
       0.014872818 -0.04046355 -0.013088903 0.0020785665
0003d0 57 e3 01 bd 4d 16 53 3d b5 c2 66 3d b8 7f 84 3c
       -0.03171095 0.05153494 0.05633803 0.016174182
0003e0 eb c3 db 3c ee e4 08 bd 0f a6 08 3d 87 c0 11 3d
       0.02682682 -0.03342145 0.03336149 0.035584
0003f0 04 60 66 bd d9 4d c3 ba 28 77 61 bd 6a 28 36 3d
       -0.05624391 -0.001490052 -0.055045277 0.044472136

conv2.bias f4 [64]
000000 cc 98 1e 3d 72 a2 2f 3d 2a 1b c5 3c 8f 11 3f bd
       0.038719937 0.04287953 0.024060804 -0.046647605
000010 be 97 8e ba 9c cc 93 3c ef a2 ba bc e4 a1 e8 3c
       -0.0010878963 0.018041901 -0.02278277 0.028397508
000020 93 2c 62 3c 39 3e 2d bc f6 72 c2 bc ff bb 51 bc
       0.013804573 -0.010573917 -0.023736458 -0.012801169
000030 72 8e 36 3d e5 95 67 3c 44 07 0f bc 13 93 79 bc
       0.04456944 0.014134859 -0.00872976 -0.015232819
000040 9b bd 2e 3d 13 07 10 bd 50 fd 24 3c b8 33 de bc
       0.04266129 -0.035162997 0.01007016 -0.02712427
000050 5c 1e 0f bb 44 f5 8f bc 45 e8 37 bd 3a c5 41 3c
       -0.0021838164 -0.017573006 -0.044899244 0.011826808
000060 a8 80 61 3d 85 ef 9e 3c 74 de 20 3d 3c ba b7 3c
       0.055054337 0.019401321 0.039274648 0.02242767
000070 6f bd 0d bd 15 d0 d3 3c 68 34 6a 3d 09 6f d1 bb
       -0.034604486 0.025856057 0.057178885 -0.0063914103
000080 9a 3f 98 bc 59 c1 60 3c 9e a6 54 bd 1f ad 9d 3c
       -0.018585015 0.013717973 -0.05191671 0.01924759
000090 e3 3f 82 bc 80 71 47 3d 8d f1 61 bd c5 d3 3b bd
       -0.015899604 0.048692226 -0.055162 -0.045856256
0000a0 4b 26 da bb 54 6e 90 bb 6d 5f 18 bd b5 c0 05 3d
       -0.006657397 -0.0044076834 -0.03720038 0.032654483
0000b0 8e 73 46 3d e1 64 f8 3b ae 89 1b bd 0c 00 97 bc
       0.048450045 0.007580385 -0.0379731 -0.01843264
0000c0 21 a9 1a bd bd f8 60 bb ea 20 0b 3d df 0a 2c 3d
       -0.03775895 -0.0034327947 0.033966936 0.042002555
0000d0 3b d4 5d bc ff 80 87 3c 4e 5a 16 bd af 5b c1 3c
       -0.013539369 0.016541002 -0.036707215 0.023603288
0000e0 df ad 36 3d 4e a3 2f bd 3f b9 be 3b 29 9d 32 bc
       0.04459941 -0.04288035 0.005820423 -0.010901728
0000f0 6c c7 66 3d fe 43 de bc 33 ba d5 ba 50 fd b4 3b
       0.056342527 -0.02713203 -0.0016306102 0.0055233613

batch_norm2.weight f4 [64]
000000 f7 fe 7f 3f 1e ff 7f 3f 35 ff 7f 3f f9 fe 7f 3f
       0.9999842 0.9999865 0.9999879 0.9999843
000010 63 ff 7f 3f 55 ff 7f 3f 86 ff 7f 3f 56 ff 7f 3f
       0.99999064 0.9999898 0.9999927 0.99998987
000020 44 ff 7f 3f 77 ff 7f 3f 15 ff 7f 3f d0 fe 7f 3f
       0.9999888 0.99999183 0.999986 0.9999819
000030 b0 fe 7f 3f 3e ff 7f 3f 0b ff 7f 3f d8 fe 7f 3f
       0.99998 0.99998844 0.9999854 0.99998236
000040 53 ff 7f 3f ce fe 7f 3f f5 fe 7f 3f 39 ff 7f 3f
       0.9999897 0.99998176 0.9999841 0.99998814
000050 f8 fe 7f 3f fd fe 7f 3f c9 fe 7f 3f eb fe 7f 3f
       0.99998426 0.99998456 0.99998146 0.9999835
000060 2c ff 7f 3f 24 ff 7f 3f 60 ff 7f 3f b2 fe 7f 3f
       0.99998736 0.9999869 0.99999046 0.9999801
000070 35 ff 7f 3f 2e ff 7f 3f 2c ff 7f 3f 44 ff 7f 3f
       0.9999879 0.9999875 0.99998736 0.9999888
000080 42 ff 7f 3f f3 fe 7f 3f a9 fe 7f 3f 8e ff 7f 3f
       0.9999887 0.99998397 0.99997956 0.9999932
000090 a3 fe 7f 3f 28 ff 7f 3f 3a ff 7f 3f 1d ff 7f 3f
       0.9999792 0.9999871 0.9999882 0.99998647
0000a0 35 ff 7f 3f d8 fe 7f 3f f8 fe 7f 3f 33 ff 7f 3f
       0.9999879 0.99998236 0.99998426 0.9999878
0000b0 5c ff 7f 3f 78 ff 7f 3f 41 ff 7f 3f e7 fe 7f 3f
       0.9999902 0.9999919 0.9999886 0.99998325
0000c0 9f fe 7f 3f 0d ff 7f 3f 5c ff 7f 3f 1d ff 7f 3f
       0.99997896 0.9999855 0.9999902 0.99998647
0000d0 de fe 7f 3f 24 ff 7f 3f 7b ff 7f 3f d6 fe 7f 3f
       0.9999827 0.9999869 0.9999921 0.99998224
0000e0 1c ff 7f 3f 18 ff 7f 3f 23 ff 7f 3f 31 ff 7f 3f
       0.9999864 0.9999862 0.9999868 0.99998766
0000f0 f0 fe 7f 3f a5 fe 7f 3f ac fe 7f 3f 3b ff 7f 3f
       0.9999838 0.9999793 0.99997973 0.99998826

batch_norm2.bias f4 [64]
000000 c4 b9 bc b5 73 3f 13 36 00 dd cf 35 56 fc 52 b6
       -1.4061156e-06 2.194164e-06 1.5487021e-06 -3.1439317e-06
000010 a5 4f cf 35 d6 55 b4 34 15 4a 4c 36 27 93 d7 b4
       1.5445881e-06 3.3590067e-07 3.044149e-06 -4.0153938e-07
000020 01 c3 d6 34 5a e5 df 34 86 48 a4 b5 4e a4 8c b4
       4.000249e-07 4.1703862e-07 -1.2240059e-06 -2.619658e-07
000030 7f e7 08 35 53 d6 68 36 49 47 3b 33 00 2f f9 35
       5.100082e-07 3.4695447e-06 4.3604164e-08 1.8565624e-06
000040 63 5b 19 35 ea f6 c6 35 21 8c a2 b5 68 aa 35 35
       5.7129927e-07 1.4824011e-06 -1.2110723e-06 6.767573e-07
000050 89 a2 0c b6 9b f5 0b 36 ad ef 2c 35 e1 01 67 b5
       -2.0956234e-06 2.0855575e-06 6.442377e-07 -8.605694e-07
000060 60 c4 2a 35 c9 d1 94 b5 b4 28 65 36 82 6d 24 35
       6.36157e-07 -1.1087915e-06 3.4147351e-06 6.1254116e-07
000070 95 0c 00 36 0b 04 05 36 60 a5 b6 b2 bf 79 4a 36
       1.908081e-06 1.9820898e-06 -2.1262792e-08 3.0171211e-06
000080 c1 d3 5f 36 2f 88 3c b6 11 c4 81 b5 ca 7a 01 36
       3.3352846e-06 -2.8093452e-06 -9.668312e-07 1.929397e-06
000090 42 73 54 35 95 9b ea 35 86 29 16 36 eb bb 22 35
       7.9143877e-07 1.7479639e-06 2.2375912e-06 6.062316e-07
0000a0 bc ef d1 b4 13 c5 a3 b5 ae b5 96 b4 f5 e8 cd 35
       -3.9103713e-07 -1.2201803e-06 -2.8071867e-07 1.534149e-06
0000b0 71 2c 62 36 a3 7b 65 36 a3 2b 25 b6 02 16 fc b4
       3.3702493e-06 3.4195625e-06 -2.4612316e-06 -4.695467e-07
0000c0 4f 6c d6 b5 8c 2a a4 34 59 ce 01 36 57 13 49 b4
       -1.5975764e-06 3.0578337e-07 1.9342608e-06 -1.872662e-07
0000d0 89 00 8f b5 34 f4 1f 35 fd 86 73 36 f8 ec 87 b5
       -1.0654486e-06 5.958748e-07 3.6288395e-06 -1.0127251e-06
0000e0 d9 d9 cc 35 7e 2a a5 b3 e2 15 06 36 0e f8 d0 b4
       1.5262586e-06 -7.6911405e-08 1.9980293e-06 -3.8923503e-07
0000f0 1a 05 1d b3 b8 58 dc b5 61 13 3c b6 56 25 68 36
       -3.655905e-08 -1.6417098e-06 -2.8025463e-06 3.4592426e-06

batch_norm2.running_mean f4 [64]
000000 17 85 0c bf 6a f9 24 be ac 50 40 bf 1c 84 d0 3e
       -0.5489058 -0.16110769 -0.75123096 0.4072579
000010 89 0d a7 be 8a 42 2f 3f 1a a1 98 3e 37 d5 c8 3e
       -0.32627514 0.68460906 0.2981041 0.3922517
000020 43 7f 57 3f fe 47 1a bf a7 19 ee 3e 83 4b 0a bf
       0.8417856 -0.602661 0.46503946 -0.5402147
000030 02 c3 8a 3f eb 44 fa 3c ba fd 53 bd 2d 2b 8c 3d
       1.0840762 0.03055044 -0.051755644 0.068441726
000040 d2 a5 ba be 52 23 86 be 89 51 13 bf 0a f8 de bd
       -0.36454636 -0.26198822 -0.5754629 -0.108871534
000050 c9 26 04 bf 20 db 10 3e a0 fc 5b bf fa 35 ee be
       -0.5162168 0.1414609 -0.8593235 -0.46525556
000060 89 23 14 3f 25 bf ca be bd 3c 26 3d 82 a9 5c bf
       0.5786672 -0.39598957 0.04058527 -0.8619615
000070 02 2a 97 3c 66 8b 2e 3e 0b 05 21 3e ae 73 92 3b
       0.018452648 0.17045364 0.1572458 0.0044693565
000080 f4 92 1f 3f 33 48 3a 3f d2 70 b9 3e 2f 1a 6d 3e
       0.6233361 0.7276642 0.36218888 0.2315452
000090 22 5e 15 bf 1a 7a bb 3e e1 7b 8b be 89 37 0d 3e
       -0.5834676 0.36616594 -0.2724295 0.13790716
0000a0 03 33 63 3f d1 18 24 be 5b 87 cc 3e f0 9f 11 3d
       0.8874971 -0.16025092 0.39947018 0.03555292
0000b0 31 85 a7 bd aa 9e 2c bf 2b 8b 95 3e a5 59 a4 be
       -0.08179701 -0.674296 0.2920774 -0.32099643
0000c0 6e 13 15 3f 5c 6d 3c 3f 9c 3a d8 3e d0 1d f5 be
       0.5823277 0.7360437 0.42232215 -0.47874308
0000d0 e7 1a a1 3e 68 98 be 3e 97 91 ec bc dd 73 20 be
       0.31465837 0.37225652 -0.028878016 -0.15669198
0000e0 44 a9 2c bf 29 d6 11 bf 81 35 c6 bd d5 47 bb 3d
       -0.6744578 -0.5696741 -0.09678174 0.0914456
0000f0 43 15 08 bf c9 f1 c8 3d b3 0e 10 3f 03 9a d5 3f
       -0.5315744 0.09811742 0.5627243 1.6687626

batch_norm2.running_var f4 [64]
000000 11 4a 61 3e 3d 78 6c 3e 05 4a 6f 3e 7a a2 8b 3e
       0.2200091 0.23092742 0.2336808 0.27272397
000010 17 97 7e 3e c9 9c 51 3e 47 32 75 3e 34 56 7b 3e
       0.24862324 0.20469965 0.2394496 0.24544603
000020 75 28 83 3e 29 39 70 3e 5d e8 5c 3e dc 12 75 3e
       0.25616804 0.23459305 0.21573015 0.23932976
000030 d5 8e 66 3e 7d 9a 81 3e 7b 7b 70 3e 4c 44 86 3e
       0.22515424 0.25313178 0.23484604 0.2622398
000040 02 ff 7f 3e 96 3c 71 3e 7f 6a 78 3e b6 a8 77 3e
       0.24999622 0.23558268 0.24259375 0.24185452
000050 a8 45 54 3e 39 8f 4d 3e 56 55 5c 3e 74 f2 62 3e
       0.20729697 0.20074166 0.21516928 0.22162801
000060 42 1b 5a 3e cb 6a 70 3e f0 ad 6e 3e b5 91 73 3e
       0.2129946 0.23478238 0.2330854 0.23786052
000070 88 73 83 3e 6c cc 55 3e 2c 38 80 3e 97 1d 77 3e
       0.2567408 0.20878762 0.25042856 0.24132381
000080 03 32 82 3e 43 ee 75 3e d1 4c 85 3e 3c f1 6f 3e
       0.2542878 0.24016671 0.2603517 0.23431867
000090 af 70 71 3e f2 6c 5b 3e 2b 3a 80 3e a2 b3 6c 3e
       0.23578142 0.21428278 0.2504438 0.231154
0000a0 0e 98 63 3e de 5c 5a 3e a8 20 7b 3e 1b 80 64 3e
       0.22225973 0.21324489 0.24524176 0.22314493
0000b0 30 81 5e 3e 08 8a 82 3e aa 5e 73 3e 65 52 82 3e
       0.21728969 0.25495934 0.2376658 0.25453487
0000c0 79 dd 76 3e 41 16 60 3e ad bb 5f 3e b6 d5 74 3e
       0.24107923 0.21883489 0.21848936 0.23909649
0000d0 e1 9f 67 3e dd de 6e 3e 9a e6 55 3e 8b bb 65 3e
       0.22619583 0.23327203 0.20888749 0.22434823
0000e0 b4 ef 5c 3e be 74 4f 3e bb a1 6b 3e e1 2f 6f 3e
       0.21575814 0.20259377 0.23010914 0.23358108
0000f0 d8 4f 63 3e 21 70 60 3e fd b2 70 3e 18 00 7e 3e
       0.22198427 0.21917774 0.23505779 0.24804723

conv3.weight f4 [128, 64, 3, 3]
000000 86 77 f9 bc 0c 52 29 bd 01 f8 04 3d d0 b5 0a bd
       -0.030452501 -0.04133801 0.032463077 -0.033864796
000010 af f2 d3 3c a5 18 c6 3c 52 de 0f bc db fc 12 3d
       0.025872556 0.024181673 -0.008781033 0.035885673
000020 0e b3 3a 3c 6f e4 1c bd c0 19 ec bc 74 cc e5 3a
       0.011395229 -0.03830379 -0.028820872 0.0017532245
000030 55 0d 21 bd b0 4a fb bc b5 20 40 bc 0f c7 b8 36
       -0.039319355 -0.030675262 -0.011726548 5.506801e-06
000040 64 01 20 bd 5b 9e 94 3b 35 24 8f 3c 67 d5 82 bb
       -0.039063826 0.004535479 0.01747332 -0.0039927247
000050 42 46 f9 bc 5b 47 96 3c af 35 8a bc 48 b3 a0 3c
       -0.03042901 0.018344572 -0.016871301 0.019616738
000060 ba 0d 00 3d 34 e7 d0 3c 57 ee 1c 3d 95 14 8f 3c
       0.03126309 0.025500871 0.038313236 0.017465869
000070 ee 38 3e ba f1 b9 4b bc 7c 27 fb bb c4 5b 23 bb
       -0.0007256408 -0.012434469 -0.007664619 -0.0024926523
000080 22 0d d0 3c 5f 1d cc 3c ad 2f 1c bd c6 c8 71 3c
       0.025396887 0.024916349 -0.038131405 0.014757341
000090 61 9b ef bb 34 d1 55 bc ea ae 13 3c ac 21 13 3d
       -0.007312224 -0.013050366 0.009013871 0.035920784
0000a0 cb 66 ea bc f7 b7 27 3c c3 64 c1 3c 3a b2 15 3d
       -0.028613469 0.010236732 0.023607617 0.036546923
0000b0 18 29 3c bc ed 83 23 3d f8 2f 1a bc 77 e2 16 bc
       -0.011484407 0.039920736 -0.009410851 -0.009209267
0000c0 94 86 7e bc a8 b1 7b 3c 66 e7 27 bd c9 af 00 3d
       -0.015535016 0.015362181 -0.040992163 0.03141764
0000d0 51 75 4a 3b 70 61 15 bd 89 b2 b5 3c 4b 4e 05 3c
       0.003089268 -0.036469877 0.022179859 0.008136342
0000e0 3c 3b 2a bd bf 67 ce 3c 0b dd c4 bc 0b c4 4d bb
       -0.041560397 0.025195954 -0.024031183 -0.0031397368
0000f0 af f8 f3 3c c1 4c 89 bc 24 f5 76 bc 78 75 1f bd
       0.029781668 -0.016760232 -0.0150730945 -0.038930386
000100 ce e8 21 bc b0 92 da 3c d3 ac 16 bd 56 51 c3 bb
       -0.009882165 0.026681274 -0.03678591 -0.0059606237
000110 83 34 75 3a 46 05 8d bb 18 2f 00 3d 9a f2 0c bc
       0.0009353833 -0.004303607 0.031294912 -0.008602763
000120 81 9b 03 bd 55 61 0a 3d 4b c0 05 bd dd c9 b2 bc
       -0.032130722 0.03378423 -0.032654088 -0.021824772
000130 cf 4f 3f bc f2 e5 c0 3c 3e 78 19 bd dc 5c 99 3c
       -0.011676743 0.023547146 -0.037468188 0.018721037
000140 1d 36 22 bc 7a fe 0e bd 85 43 39 bb da 15 c2 3c
       -0.009900597 -0.034910657 -0.0028269005 0.02369206
000150 f3 4b 4e 3c b8 03 52 bc 1a 2b b9 3c 66 8b 0c 3d
       0.01259135 -0.012818269 0.02260356 0.03431263
000160 fd 54 19 3d 59 b2 23 3d 97 8b 83 bc 4b e6 be 3a
       0.037434567 0.039965007 -0.016057773 0.0014564482
000170 2d e7 84 3c af a1 10 3d fb 9b 15 bd 5a 85 e0 bc
       0.016223514 0.035310443 -0.036525708 -0.027407337
000180 49 ee 4e 3c 4e b4 32 bb 51 32 22 3c 8c 9f 72 3c
       0.012630054 -0.0027268114 0.009899692 0.014808547
000190 6b 3a 06 3c 2e bf 29 bd 0c 4a c9 3c 14 06 fe bb
       0.008192639 -0.04144209 0.024571441 -0.0077521894
0001a0 cd f6 b2 3b 62 c0 22 3d bf 34 27 bb c2 42 be 3c
       0.00546155 0.03973425 -0.0025513617 0.023225192
0001b0 07 94 0c 3d e0 07 29 bd c1 d5 75 bc 3b 76 02 bc
       0.034320857 -0.041267276 -0.015004576 -0.007962759
0001c0 10 4b d9 bc 97 8d 2a 3d f2 77 04 3d 20 35 f3 3c
       -0.02652505 0.041638937 0.03234095 0.029688418
0001d0 5a 1c 2d 3b 89 fd 87 3c 54 0c b6 bb 7e 9c f4 bc
       0.0026414604 0.016600387 -0.005555669 -0.029859778
0001e0 58 3b 6b bc ce e0 8f bc 68 39 ed 3b 8d 40 4b bc
       -0.01435741 -0.01756325 0.0072395094 -0.012405527
0001f0 67 b5 81 3c 36 d6 c5 bc 19 d3 07 bd 27 b9 94 bb
       0.01583357 -0.024149995 -0.033160303 -0.0045386734
000200 07 1f ee bc 82 b7 7f 3c 4b 43 e1 3c 17 7d 0f 3b
       -0.02906753 0.0156077165 0.027497908 0.0021894628
000210 e6 01 e1 3c d9 40 bd 3a 59 66 23 3d 51 b5 1e 3b
       0.027466726 0.0014438882 0.03989253 0.002421696
000220 f2 cd 65 3c 8f 94 94 bc 1f 1d d7 3b 6c 83 73 bb
       0.014026152 -0.018137245 0.006564751 -0.003715719
000230 f0 cf d3 3c 09 83 20 bd 52 78 68 3b 1e f7 c3 3c
       0.025855988 -0.039187465 0.0035472107 0.023921546
000240 bf 10 7b bc d7 ba 01 bd c8 a9 bf 3b ba 10 e4 3c
       -0.015323817 -0.031672325 0.005849097 0.027840007
000250 35 4e 0d bc 9a ad e3 bc 63 4f d3 bc ba 9c 43 3c
       -0.008624603 -0.02779274 -0.02579469 0.011939222
000260 ea 05 26 3b 9f f1 b3 3b 7e 89 54 bc 45 37 be 3c
       0.0025333115 0.00549145 -0.012972234 0.023219714
000270 18 19 09 bd f8 ee ac 3c c6 c0 09 3d 6a 5f 17 bd
       -0.033471197 0.021110043 0.03363111 -0.03695623
000280 08 03 87 39 c4 58 5d bb bf bf 02 3c 72 7a ce bb
       0.00025751465 -0.0033774832 0.007980286 -0.0063012177
000290 ab c9 1a 3d 22 38 75 bc 07 13 bb 3c 87 b4 75 3c
       0.03778998 -0.014966996 0.022836221 0.014996654
0002a0 50 bd f3 bc a6 04 0e bd c8 37 8b 3c 16 07 f1 bc
       -0.029753357 -0.0346724 0.016994372 -0.029422324
0002b0 88 98 5f 3c 50 37 12 3d 38 72 52 3c f2 4b 0a bd
       0.013647206 0.03569728 0.012844615 -0.033763833
0002c0 88 eb 8c bc 26 10 81 bc 10 b7 08 3d 3f 89 a7 3c
       -0.017202154 -0.01575477 0.033377707 0.020451186
0002d0 e9 a9 df bc f8 34 19 bd a3 25 b3 bc d9 cc 1e 3c
       -0.0273027 -0.03740403 -0.021868533 0.009692394
0002e0 c6 91 bd 3b 38 54 a1 bc c3 1e 89 bc de e9 39 3c
       0.0057852 -0.019693479 -0.016738301 0.011347262
0002f0 99 4f 17 3d bb 9f 04 bd 4e 81 f1 bc 7d ce 0d 3d
       0.036941145 -0.032378893 -0.029480603 0.03462075
000300 2f 3b 19 bd 8a e5 89 bc 34 1f f0 3a fe d1 c1 bb
       -0.037409957 -0.016833086 0.0018319846 -0.0059149256
000310 2e 0e 93 bc c2 c9 ce 3c 5a 28 1a 3d 18 46 04 3d
       -0.017951097 0.02524269 0.03763614 0.03229341
000320 82 6b 1d bc 81 c2 b8 3c 2c f9 13 3d b3 73 ec bc
       -0.009608151 0.022553684 0.0361263 -0.028863763
000330 8d af 43 3c ec 96 2a bd 9f b9 7c 3c 52 fb ca 3c
       0.01194371 -0.041647837 0.015425115 0.024778042
000340 11 f8 24 bd 75 c2 1e 3d 0f ba 7b 3c 9a be 00 3c
       -0.040275637 0.038759667 0.015364184 0.007857943
000350 7e c5 0f 3d 98 88 70 3c 22 d4 d1 bc d9 92 10 bd
       0.035100453 0.014681004 -0.025613848 -0.035296295
000360 67 0f 27 3d 42 5d c0 bc cc a4 93 bc 89 10 15 bd
       0.040786173 -0.023481969 -0.018022917 -0.036392722
000370 0e b7 20 3c eb 6f 36 bc 25 e5 a6 3c e1 ad 17 3d
       0.009809269 -0.011135082 0.020372937 0.03703106
000380 a9 0f a4 bc fd b0 7f bc 05 d8 13 bd 45 9b af 3c
       -0.020026999 -0.015606162 -0.036094684 0.021436343
000390 bf 1c 81 3c 96 bf 24 bd ae ff 21 3c 2a c9 63 bc
       0.015760778 -0.040221773 0.009887619 -0.013902942
0003a0 4b d1 8d 3c d2 70 36 3b 9a 6c 38 3c 82 ed c9 bb
       0.017311713 0.0027838242 0.011256361 -0.0061623463
0003b0 fe 3c 17 bd fd 6e 91 3c 44 5a 26 3d f6 81 82 b8
       -0.0369234 0.017753119 0.040613428 -6.22309e-05
0003c0 50 cf a5 3c 50 6e 58 3c 6f fa 8d 3c e9 be 25 3d
       0.020240456 0.013209894 0.01733133 0.04046527
0003d0 43 52 bd 3c 9d d9 11 3d 2a 1b 19 3d 35 b4 4c 3c
       0.023110515 0.035607923 0.03737942 0.012494137
0003e0 4c db ec bb a3 72 c1 bc 2b b6 44 3c 48 17 14 3d
       -0.0072282907 -0.023614233 0.012006323 0.036155015
0003f0 4e a2 08 3d 76 40 9a 3c 0d ea c6 3c 42 73 15 3d
       0.03335791 0.018829565 0.024281526 0.03648687

conv3.bias f4 [128]
000000 7b 64 03 3d c7 39 8d 3c 06 21 f6 bc 1b 25 31 bc
       0.032078248 0.017239464 -0.030045044 -0.010812069
000010 f2 0d 2e bb 74 ce 66 ba 48 ff 73 bc e8 73 5b bc
       -0.0026558605 -0.00088045676 -0.014892407 -0.013394333
000020 59 2b ba 3b ba e9 ee bc cf fe 0d bc 75 76 2e 3b
       0.005681437 -0.029164184 -0.008666708 0.00266209
000030 48 0d dc bc c0 51 0b bb 6b ec d3 bc d1 e2 a7 3c
       -0.026861802 -0.0021258444 -0.025869569 0.020493897
000040 1e 15 ac 3c c8 5e 2a 3d c3 af bd bc de 4d 09 3d
       0.021006163 0.041594297 -0.023155099 0.033521526
000050 80 25 22 3c bd c4 16 3d d4 ab 25 bd c7 5e ae 3c
       0.009896636 0.036808718 -0.04044707 0.021285428
000060 cf f3 b8 bc 89 36 19 3d cf e9 cc 3c b4 a9 26 3d
       -0.022577194 0.037405524 0.025013832 0.040689185
000070 d8 48 06 3c e6 b8 65 bc f5 b7 1b bd 9a a6 af 3c
       0.008196078 -0.014021134 -0.038017232 0.021441747
000080 08 db fc bc 9c e2 b3 bc c7 a9 ab bc fa ac 0c bd
       -0.030866161 -0.021958642 -0.02095498 -0.03434465
000090 c9 e5 3f bc 77 67 06 bb 2b f9 e7 b8 38 58 b0 bc
       -0.0117125 -0.0020508447 -0.000110613495 -0.021526441
0000a0 14 1b 4a bc 13 7e 0f bc 38 89 b9 bc 09 68 37 3c
       -0.0123355575 -0.008758086 -0.022648439 0.0111942375
0000b0 15 b8 f6 3c 09 d3 b1 bc 3a 6f 89 3c af a5 04 3d
       0.030117074 -0.021707075 0.01677667 0.03238457
0000c0 65 88 0a 3c 98 25 56 3c d6 83 b9 bc 1b b0 7c bb
       0.008455371 0.0130704865 -0.022645872 -0.0038557115
0000d0 30 79 0d 3d e5 64 07 3d 48 ba 14 3c 64 59 cc bb
       0.0345394 0.033055205 0.009077616 -0.006236242
0000e0 27 93 06 bd 5e c7 65 3c c0 d4 aa bc 93 94 70 bc
       -0.03285518 0.014024584 -0.0208534 -0.01468386
0000f0 52 12 e7 bc 44 7c 06 bc a3 fb 1b 3b 92 b4 03 bd
       -0.028206978 -0.008208338 0.002380111 -0.032154627
000100 c1 55 d5 3a 47 2c 3c bb 89 44 37 3c 63 17 4a 3c
       0.0016276167 -0.0028712915 0.011185774 0.012334677
000110 28 6e e3 3c 68 dc d8 bc 7b e5 fc 3c ef e6 c5 3c
       0.027762488 -0.026472285 0.030871144 0.02415797
000120 d7 d9 97 3a ed 03 68 bc 76 3b 5d bc e2 7f 4a bc
       0.0011585307 -0.014161092 -0.013502946 -0.012359591
000130 bb 44 8c 3c a8 4c 0d 3d e6 8d 3a bb d5 21 20 bc
       0.017122617 0.034496933 -0.0028465926 -0.009773691
000140 09 d5 12 bd e0 a8 1e 3b e9 ff bb bc 01 bc d2 bb
       -0.035847697 0.0024209544 -0.022949176 -0.006431103
000150 9f 1e b3 3c 57 9c 8a 3c a1 cb ce 3c e7 3b 8f bc
       0.021865187 0.016920252 0.025243582 -0.017484618
000160 81 df 9c 3c 60 5f 18 bd ff 00 03 bd 89 af 47 bb
       0.019149544 -0.03720033 -0.03198337 -0.0030469617
000170 21 a5 8b 3c 25 a2 84 bb c5 53 b9 3b 99 4b b6 bc
       0.017046513 -0.0040476494 0.005655738 -0.022252845
000180 2f 0d 00 bd d6 c5 93 3c a2 31 20 3d a9 97 1b 3d
       -0.031262573 0.018038671 0.039109834 0.03798643
000190 0e 4c 09 3c e2 fa 16 3c 6c d7 a1 ba 8d fd 1b bc
       0.008379949 0.009215089 -0.0012347526 -0.0095209
0001a0 05 b7 18 bc 6b dd 82 3c ab ff 80 bb 6a f8 ec 3c
       -0.009320979 0.015974721 -0.003936728 0.028927047
0001b0 6a d2 93 3c 0f 03 c6 3c 11 b7 e1 bc f3 89 c6 bc
       0.01804467 0.02417138 -0.027553113 -0.024235701
0001c0 6c 87 8a bc 68 d4 a1 bc ed 6e 15 bb 6b 86 e7 3c
       -0.016910277 -0.019754604 -0.0022801713 0.028262338
0001d0 2a e6 fd 3c c1 7a 1f 3c d6 7e b4 bc 91 10 ce 3c
       0.03099354 0.009733857 -0.022033136 0.025154384
0001e0 88 7c dd 3c c7 8b c5 bb ea 64 0d bd 73 f8 e1 3b
       0.02703692 -0.0060286256 -0.034520067 0.0068960725
0001f0 23 ad 60 bc 27 33 a8 3c 23 22 6f bc 3f 29 13 bd
       -0.013713154 0.020532204 -0.014595541 -0.035928007

batch_norm3.weight f4 [128]
000000 5c fc 7f 3f 79 fd 7f 3f e1 00 80 3f cb 00 80 3f
       0.99994445 0.99996144 1.0000268 1.0000242
000010 77 fa 7f 3f 62 fe 7f 3f 3a fb 7f 3f a6 fe 7f 3f
       0.99991554 0.9999753 0.99992716 0.9999794
000020 7d 00 80 3f 2d fc 7f 3f 4f fb 7f 3f 00 f8 7f 3f
       1.0000149 0.99994165 0.9999284 0.9998779
000030 68 f8 7f 3f 3d f3 7f 3f 12 ff 7f 3f 6b fa 7f 3f
       0.9998841 0.9998053 0.9999858 0.9999148
000040 7d ff 7f 3f c5 fc 7f 3f a4 fd 7f 3f 6a f9 7f 3f
       0.9999922 0.9999507 0.999964 0.9998995
000050 a4 02 80 3f b6 fe 7f 3f f3 00 80 3f 9d fe 7f 3f
       1.0000806 0.99998033 1.000029 0.99997884
000060 57 fa 7f 3f a0 00 80 3f 63 fe 7f 3f 67 f9 7f 3f
       0.99991363 1.0000191 0.9999754 0.9998993
000070 05 01 80 3f 0c fd 7f 3f b8 fd 7f 3f 7a 01 80 3f
       1.0000311 0.99995494 0.9999652 1.0000451
000080 39 fb 7f 3f db ff 7f 3f 91 fe 7f 3f 16 fc 7f 3f
       0.9999271 0.9999978 0.9999781 0.9999403
000090 54 f9 7f 3f 4f fd 7f 3f 39 00 80 3f 2b fd 7f 3f
       0.9998982 0.99995893 1.0000068 0.9999568
0000a0 55 fa 7f 3f b7 fc 7f 3f 27 02 80 3f 6e 00 80 3f
       0.9999135 0.9999499 1.0000657 1.0000131
0000b0 23 f7 7f 3f 38 fc 7f 3f d0 f7 7f 3f 29 fc 7f 3f
       0.99986476 0.9999423 0.99987507 0.9999414
0000c0 0a fe 7f 3f f9 fc 7f 3f 8b fc 7f 3f 2a fd 7f 3f
       0.9999701 0.9999538 0.99994725 0.9999567
0000d0 b5 01 80 3f dd 01 80 3f 52 ff 7f 3f 09 fd 7f 3f
       1.0000521 1.0000569 0.9999896 0.99995476
0000e0 2d 00 80 3f 76 01 80 3f d4 fc 7f 3f b2 01 80 3f
       1.0000054 1.0000446 0.9999516 1.0000517
0000f0 1f 00 80 3f 97 01 80 3f 3b ff 7f 3f fc f6 7f 3f
       1.0000037 1.0000485 0.99998826 0.99986243
000100 35 fd 7f 3f 6f f9 7f 3f e4 fc 7f 3f 41 fc 7f 3f
       0.9999574 0.9998998 0.99995255 0.99994284
000110 a3 f8 7f 3f 28 01 80 3f c6 f3 7f 3f 02 00 80 3f
       0.99988765 1.0000353 0.99981344 1.0000002
000120 32 fb 7f 3f 38 ff 7f 3f 38 ff 7f 3f a6 f7 7f 3f
       0.9999267 0.9999881 0.9999881 0.99987257
000130 56 fe 7f 3f 83 00 80 3f 10 fd 7f 3f 51 00 80 3f
       0.9999746 1.0000156 0.9999552 1.0000097
000140 f6 fd 7f 3f 59 00 80 3f 0a fd 7f 3f 86 fe 7f 3f
       0.9999689 1.0000106 0.9999548 0.99997747
000150 5d fb 7f 3f 9f fc 7f 3f 97 00 80 3f 3f 01 80 3f
       0.99992925 0.99994844 1.000018 1.000038
000160 f6 fd 7f 3f 13 01 80 3f e8 fd 7f 3f b0 f9 7f 3f
       0.9999689 1.0000328 0.99996805 0.9999037
000170 3c fa 7f 3f 5c fa 7f 3f 6f 02 80 3f 91 01 80 3f
       0.999912 0.99991393 1.0000743 1.0000478
000180 ce 00 80 3f d1 fe 7f 3f 02 fd 7f 3f c8 01 80 3f
       1.0000246 0.99998194 0.99995434 1.0000544
000190 47 fd 7f 3f 20 01 80 3f 6f 00 80 3f 0b ff 7f 3f
       0.99995846 1.0000343 1.0000132 0.9999854
0001a0 14 01 80 3f 5a f8 7f 3f a3 fb 7f 3f f2 01 80 3f
       1.0000329 0.9998833 0.9999334 1.0000594
0001b0 c6 fa 7f 3f 45 01 80 3f 59 02 80 3f d8 f9 7f 3f
       0.99992025 1.0000387 1.0000716 0.99990606
0001c0 60 fb 7f 3f 3d f9 7f 3f f8 00 80 3f 86 fa 7f 3f
       0.9999294 0.9998968 1.0000296 0.99991643
0001d0 aa f7 7f 3f 84 fd 7f 3f 97 fe 7f 3f 2b 01 80 3f
       0.9998728 0.9999621 0.9999785 1.0000356
0001e0 70 f7 7f 3f c9 02 80 3f db 02 80 3f 31 fd 7f 3f
       0.99986935 1.000085 1.0000871 0.99995714
0001f0 f2 fd 7f 3f 9a 01 80 3f e4 f6 7f 3f 71 fa 7f 3f
       0.99996865 1.0000489 0.999861 0.9999152

batch_norm3.bias f4 [128]
000000 1c 84 1c b8 e5 71 ca b7 24 26 14 38 07 81 0e 38
       -3.7316335e-05 -2.4133313e-05 3.532147e-05 3.3975604e-05
000010 4c 8a 84 b8 0d ca 2a b7 d2 43 5d b8 e5 66 8d b6
       -6.32001e-05 -1.0179833e-05 -5.275367e-05 -4.214106e-06
000020 87 3c e0 37 02 11 25 b8 5f 23 57 b8 e7 74 cc b8
       2.6731066e-05 -3.9354905e-05 -5.1292936e-05 -9.749253e-05
000030 e3 28 c2 b8 aa 20 2a b9 40 78 3e b5 23 91 80 b8
       -9.2582566e-05 -0.00016224632 -7.09555e-07 -6.1305494e-05
000040 ca 61 d8 36 9e f4 03 b8 94 d3 ac b7 90 26 a1 b8
       6.448686e-06 -3.146065e-05 -2.0602522e-05 -7.684261e-05
000050 75 cb b4 38 0d 22 b2 b6 29 58 1f 38 bb 5e f3 b6
       8.620966e-05 -5.3087774e-06 3.799066e-05 -7.2529924e-06
000060 b1 a6 8d b8 ac dc 01 38 a0 6e 3d b7 46 2b a3 b8
       -6.7544526e-05 3.0961513e-05 -1.1291035e-05 -7.780506e-05
000070 a3 78 29 38 a7 cb ed b7 b2 2f 9f b7 37 96 5a 38
       4.040509e-05 -2.8347435e-05 -1.8976487e-05 5.211515e-05
000080 ef 2c 68 b8 9b 7b 34 37 ca 83 34 b7 4a 65 24 b8
       -5.5354958e-05 1.0757615e-05 -1.0759521e-05 -3.919498e-05
000090 80 7a a6 b8 be c1 d3 b7 e2 78 ad 37 e9 d3 db b7
       -7.938314e-05 -2.5243378e-05 2.0679498e-05 -2.6205513e-05
0000a0 88 ac 84 b8 83 bb 05 b8 d2 42 9b 38 d5 53 bf 37
       -6.326387e-05 -3.1884305e-05 7.403422e-05 2.2808012e-05
0000b0 50 ed e4 b8 90 83 1b b8 2d 40 d0 b8 fd 68 26 b8
       -0.0001091609 -3.7077407e-05 -9.9301666e-05 -3.9675262e-05
0000c0 87 bf 72 b7 e4 a3 f7 b7 47 4e 19 b8 64 62 d6 b7
       -1.44689175e-05 -2.9521012e-05 -3.6550944e-05 -2.5556605e-05
0000d0 f0 bc 74 38 08 e4 84 38 25 f6 02 36 b9 c3 e7 b7
       5.8350095e-05 6.3367246e-05 1.9514785e-06 -2.7628486e-05
0000e0 02 96 8e 37 ce 11 5d 38 4a 4d 02 b8 c8 06 7f 38
       1.6997572e-05 5.2707088e-05 -3.1066396e-05 6.0803053e-05
0000f0 26 df 7e 37 42 f7 70 38 1d 9a 80 35 57 80 e9 b8
       1.5191536e-05 5.7450736e-05 9.581596e-07 -0.00011134211
000100 fe 59 d4 b7 13 51 9f b8 03 f4 01 b8 46 21 21 b8
       -2.5314275e-05 -7.596812e-05 -3.098325e-05 -3.841638e-05
000110 da f4 b6 b8 cf 45 3d 38 11 c0 23 b9 16 8d 60 37
       -8.7240434e-05 4.5126126e-05 -0.00015616442 1.338429e-05
000120 96 30 6d b8 d2 92 3c 36 b5 ad 20 36 9a 56 d9 b8
       -5.6550452e-05 2.8099644e-06 2.3942969e-06 -0.00010363497
000130 93 60 33 b7 77 d1 e7 37 40 aa f9 b7 b9 59 b1 37
       -1.0691717e-05 2.7634886e-05 -2.9762392e-05 2.1141825e-05
000140 9e 5f 8f b7 2b 37 b8 37 11 2d fd b7 ee 3f 06 b7
       -1.7091454e-05 2.1960199e-05 -3.0180936e-05 -8.001907e-06
000150 e4 86 55 b8 53 fe 0c b8 77 cb e4 37 4a c8 3c 38
       -5.0908784e-05 -3.361546e-05 2.7274464e-05 4.5009227e-05
000160 47 26 61 b7 40 de 34 38 be e4 88 b7 de d5 9a b8
       -1.3419957e-05 4.312233e-05 -1.631898e-05 -7.383128e-05
000170 f7 63 8c b8 d8 e5 86 b8 da 1d aa 38 5e 87 71 38
       -6.69434e-05 -6.43243e-05 8.111792e-05 5.7584948e-05
000180 a8 55 15 38 90 86 57 b6 68 c2 e3 b7 4f d4 80 38
       3.5604142e-05 -3.2115822e-06 -2.7151036e-05 6.143061e-05
000190 c1 3d df b7 59 37 25 38 d6 67 d9 37 3a 9d 85 b4
       -2.6612428e-05 3.9390612e-05 2.5916768e-05 -2.4887578e-07
0001a0 ac 00 36 38 27 58 c1 b8 eb b9 4a b8 87 6d 88 38
       4.3392807e-05 -9.219377e-05 -4.8333703e-05 6.5053864e-05
0001b0 a7 b5 73 b8 d8 b0 47 38 dc a6 a2 38 3a a8 94 b8
       -5.810489e-05 4.7609996e-05 7.755842e-05 -7.0885246e-05
0001c0 ab a1 58 b8 e5 e9 a6 b8 98 ac 26 38 44 93 83 b8
       -5.1648978e-05 -7.959063e-05 3.9738225e-05 -6.273997e-05
0001d0 49 7a d6 b8 29 c2 aa b7 62 7e 1d b7 ca 61 43 38
       -0.000102270926 -2.0355992e-05 -9.387355e-06 4.6582696e-05
0001e0 1c 3f e1 b8 5f e3 b9 38 0f 35 c1 38 c0 ce da b7
       -0.00010740591 8.8638386e-05 9.21284e-05 -2.60839e-05
0001f0 89 86 77 b7 ab 08 6d 38 a1 22 ed b8 ac 08 82 b8
       -1.4753671e-05 5.6513276e-05 -0.00011307491 -6.200498e-05

batch_norm3.running_mean f4 [128]
000000 b5 83 db 3c 06 cd f3 3e c2 a4 37 bd 8b 54 d7 bd
       0.026796201 0.47617358 -0.04483486 -0.10514172
000010 53 00 55 3c a7 b8 f3 3e b0 67 fd 3a 47 db cd 3e
       0.013000566 0.47601816 0.001933327 0.40206358
000020 ac cc 09 be b0 f6 66 be 1c fa 83 be 25 20 c7 3e
       -0.13456982 -0.22555041 -0.25776756 0.38891712
000030 9d 09 76 be 12 a8 6d 3f f7 5c 59 3f 9c 48 53 3f
       -0.24027105 0.9283458 0.8490748 0.8253267
000040 d3 4e b7 3e 4a 21 f7 3c 5e 45 5f 3f 9c b6 f3 3d
       0.35802326 0.03016724 0.8721522 0.11900064
000050 ec f9 9b bf 3f 4e 70 3c 4a ac e2 be 00 f0 d7 3e
       -1.2185645 0.014667093 -0.4427207 0.42175293
000060 66 73 8f bf 24 23 77 3f be 05 4d 3f 25 44 19 be
       -1.1207092 0.96537995 0.80086887 -0.14967401
000070 19 d4 03 3f aa 05 0c bf f2 a8 dc be 15 cb a3 bd
       0.5149551 -0.5469614 -0.43097645 -0.07997719
000080 25 cd 6f 3f fe 4b 90 3f c7 74 e7 3e dd b2 bd 3e
       0.936724 1.1273191 0.45206282 0.37050524
000090 d8 36 8c bf 83 4b 0a 3f f2 86 58 bf 36 69 94 bc
       -1.0954237 0.5402147 -0.8458091 -0.018116575
0000a0 12 c8 68 be 77 9d e5 3c c7 d2 4e bf b1 a6 ec 3d
       -0.22732571 0.028029187 -0.8079037 0.11555231
0000b0 a8 c4 98 be 08 6d 74 3d 05 ba 35 3f b9 38 08 bf
       -0.29837537 0.059674293 0.7098697 -0.5321155
0000c0 de f5 15 bf 12 ea 34 3f b3 76 fe be e5 d0 38 bd
       -0.5857829 0.7066966 -0.49699935 -0.045121092
0000d0 bb 0c c1 3e 3b ee 9a 3f c1 74 b5 3e 19 27 12 be
       0.37705025 1.2103952 0.3544064 -0.14272727
0000e0 5c 28 9e be cd 1a 00 3e d5 26 30 bf 68 94 21 3f
       -0.30890167 0.12510224 -0.6880925 0.63117075
0000f0 11 ed 66 3e 93 36 49 bf 29 dc 43 3f e6 db 0d 3f
       0.22551371 -0.785989 0.7650781 0.55413663
000100 f9 57 08 3f d0 bc 03 3f ff 18 80 3c c5 b8 ad 3e
       0.53259236 0.5145998 0.015636919 0.3393003
000110 cc 91 8f 3d 4d 31 9d be 69 8f 09 3d 12 70 af be
       0.070102304 -0.30701676 0.033584032 -0.3426519
000120 e8 85 53 bd d3 34 4e be 7a aa 23 3f 22 07 3c be
       -0.051641375 -0.20137338 0.63932 -0.18362096
000130 dc f9 46 bf 68 db 98 3d b3 c3 11 be e1 4d cd 3d
       -0.77725005 0.074637234 -0.1423481 0.1002462
000140 55 9f 0b 3f fd 66 ec bc dc 3c 79 bf 53 58 be bc
       0.54539996 -0.028857702 -0.9735849 -0.023235476
000150 00 99 50 bf a4 a9 5e 3d 53 94 31 3f 6a 8c 89 3d
       -0.8148346 0.054361 0.6936695 0.06716235
000160 99 5b fa 3d d5 d6 fa bc f5 b1 32 bf 8b 30 62 bf
       0.12224502 -0.030620018 -0.6980279 -0.8835532
000170 a0 d2 0d bf ef a7 a0 3f a5 63 de 3e b1 25 62 bf
       -0.55399513 1.2551249 0.43435398 -0.8833876
000180 8a fd 6a 3e df b6 61 3e 29 a0 f8 bd 83 9d 43 bf
       0.2294828 0.22042416 -0.12139923 -0.7641222
000190 8b 38 d4 3e fa 5b 05 3f e9 e1 a0 be f2 d1 8c 3f
       0.4144939 0.5209347 -0.31422356 1.100157
0001a0 aa cf bb 3e f2 ec a2 3e b9 51 a7 bf 5e e0 12 3e
       0.36681873 0.318214 -1.3071815 0.14343402
0001b0 06 c5 dd be c2 67 6c 3e 16 ec d5 be 05 41 05 bd
       -0.4331438 0.23086455 -0.41781682 -0.03253271
0001c0 04 a4 25 3f 36 bf af bd a6 ee d5 bc ee ac a3 3e
       0.64703393 -0.085813925 -0.026114773 0.31967872
0001d0 bb 1b a6 3e e8 57 19 bd 6b 8b 31 bd f5 5e 07 be
       0.32443032 -0.03743735 -0.04334585 -0.13219817
0001e0 eb f4 79 3c 3b 3d f4 3e a5 ee 10 bf a0 66 8d bf
       0.015256147 0.47702965 -0.5661414 -1.1046944
0001f0 af 68 43 bf 3a 57 4d bf 7c 7f 0e bf 07 c0 50 3f
       -0.7633161 -0.8021122 -0.55663276 0.8154301
